实验3：软件设计与实现/src/deployment/model_file/torch_model/model.pt (torch_old, 101887 bytes, 8 tensors)

weight f4 [10, 1, 5, 5]
0	0x3e00aa4d	0.12564965
1	0xbdbfcdeb	-0.093654476
2	0xbdad894a	-0.084734514
3	0x3c9c3c8f	0.019071845
4	0xbe6f01a6	-0.23340473
5	0x3e3882a2	0.18018582
6	0xba945be2	-0.0011318887
7	0x3ddbe7c4	0.10737565
8	0x3d0539ab	0.0325257
9	0xbc78d864	-0.01518831
10	0x3e09ca52	0.13456085
11	0x3dc95888	0.09831339
12	0x3e2151c8	0.15753853
13	0x3c4ed381	0.012623669
14	0x3d626641	0.0552733
15	0x3c8f91d0	0.017525584
16	0x3dabd912	0.08391012
17	0x3d87106e	0.065949306
18	0x3e7940ac	0.24341077
19	0x3e04a468	0.12953341
20	0xbdc984cf	-0.09839784
21	0xbe16f0c9	-0.1474029
22	0xbd7f6ba4	-0.062358513
23	0xbdbe70d6	-0.092988655
24	0xbd254e21	-0.040357713
25	0x3d90a49a	0.07062645
26	0x3e6f48f9	0.2336768
27	0x3def8cd7	0.11696785
28	0xbea9dce5	-0.33176342
29	0xbd4aadf3	-0.049482297
30	0x3e1bfbc5	0.15232761
31	0x3ea86740	0.32891273
32	0x3e07c6ae	0.13259384
33	0xbe9dc0b0	-0.3081107
34	0xbea58571	-0.3232837
35	0x3d26e431	0.040744964
36	0x3ea917e3	0.33026037
37	0xbd0f75d9	-0.035024498
38	0xbccddd66	-0.025129985
39	0xbe4e2031	-0.20129468
40	0x3e9c7d35	0.30564275
41	0x3d18f8e4	0.037346736
42	0x3e33618f	0.17517684
43	0xbd1c11dd	-0.038102973
44	0xbe0d7799	-0.13815154
45	0x3e435d7a	0.19078627
46	0xb9ccf8f0	-0.00039095385
47	0x3e0a0935	0.13480075
48	0xbc0940cd	-0.008377266
49	0x3c8b18d2	0.016979609
50	0xbe86e126	-0.2634365
51	0xbe0afcd7	-0.13573013
52	0x3e242293	0.16028814
53	0x3d8c809d	0.068604685
54	0x3e90598d	0.28193322
55	0x3debfdde	0.11523031
56	0x3c52c7a0	0.012864977
57	0x3bfc18f8	0.007693406
58	0x3e933e44	0.28758442
59	0x3e0dc29b	0.13843767
60	0xbdee534e	-0.11636983
61	0x3e676c15	0.22599824
62	0x3e9b4b8d	0.30331078
63	0x3eac262e	0.3362288
64	0xbd9cb398	-0.07651442
65	0x3cc85f8e	0.024459627
66	0x3dddad68	0.1082409
67	0x3e321164	0.17389446
68	0xbd90cc80	-0.07070255
69	0xbe16a938	-0.1471299
70	0x3e1b4c39	0.15165795
71	0x3d110c1e	0.035411946
72	0x3e30bc6b	0.17259376
73	0x3cecfed8	0.028930113
74	0x3d31ab0d	0.043376017
75	0x3dcc7608	0.0998345
76	0x3e18010f	0.14844154
77	0x3e2a1b2c	0.16611928
78	0xbe0eb6f0	-0.13936973
79	0x3e0c89b8	0.1372441
80	0xbe08ff0d	-0.13378544
81	0xbe02b9e5	-0.12766226
82	0x3d0d6d33	0.03452797
83	0xbc1663fa	-0.00917911
84	0x3e197601	0.14986421
85	0xbdfc2937	-0.123125486
86	0xbe3df79d	-0.18551488
87	0x3e02231e	0.12708709
88	0xbd229a47	-0.03969791
89	0x3df5fe41	0.12011386
90	0x3d66f427	0.056385186
91	0xbe2b3dca	-0.1672279
92	0x3b2bbce8	0.0026205126
93	0x3c72efc5	0.014827673
94	0xbe1d9b6b	-0.15391319
95	0xbdc4f357	-0.09616726
96	0x3d613c84	0.054989353
97	0xbb61c961	-0.0034452307
98	0xbe0142da	-0.12623158
99	0xbdbbace9	-0.09163839
100	0x3e8d838b	0.27639422
101	0x3dd62563	0.1045635
102	0x3e7a2239	0.24427117
103	0x3e055a89	0.13022818
104	0xbe31101d	-0.17291303
105	0xbd17e60e	-0.03708463
106	0x3ee2f701	0.44329074
107	0x3e70c765	0.23513563
108	0x3e6d33ce	0.23164293
109	0x3d5fd075	0.05464216
110	0x3e84f85f	0.25970742
111	0x3ef687d4	0.48150504
112	0x3eea623f	0.4577808
113	0xbc91ede4	-0.01781363
114	0x3dcd9637	0.10038417
115	0x3e982091	0.29712346
116	0x3ec274f0	0.3797984
117	0x3e9680b8	0.2939508
118	0xbd81aa14	-0.06331268
119	0xbd5be9d7	-0.053689804
120	0xbdabe2ff	-0.083929054
121	0x3ddb97aa	0.10722287
122	0x3e85624b	0.26051554
123	0xbd98e9bd	-0.07466457
124	0x3e4d6a37	0.20060049
125	0xbe069d91	-0.13146044
126	0xbe62953b	-0.2212724
127	0xbcd0ff31	-0.02551231
128	0x3e815598	0.25260615
129	0x3eb04840	0.34430122
130	0xbdb8e8b5	-0.0902876
131	0x3dad608c	0.084656805
132	0x3e921144	0.28528798
133	0x3ead6e83	0.33873376
134	0x3e943b9e	0.28951734
135	0x3e4b806e	0.19873211
136	0x3e3a9974	0.182226
137	0x3e17de1e	0.14830825
138	0x3bdc14ce	0.0067163473
139	0xbdb2ef0b	-0.08737
140	0xbd967102	-0.07345773
141	0xbc1fd2f6	-0.009754887
142	0xbd9f9b21	-0.0779326
143	0x3e1ef3f7	0.15522753
144	0x3dca9056	0.09890811
145	0xbd865f56	-0.06561153
146	0x3d738f40	0.059462786
147	0x3daedc9b	0.08538171
148	0x3e2ebe4c	0.1706478
149	0x3e1eecf6	0.15520081
150	0xbdba998c	-0.09111318
151	0x3e2e85aa	0.17043176
152	0xbc3dd159	-0.011585557
153	0x3d023fd5	0.031799156
154	0xbe2cbe4d	-0.16869469
155	0xbe2c8bbd	-0.16850181
156	0xbe11f1a6	-0.14252338
157	0xbd890d70	-0.06692016
158	0x3e387a7d	0.18015476
159	0xbd77cf95	-0.0605007
160	0xbe35c2aa	-0.1775004
161	0x3da549e8	0.08070737
162	0x3de5bf4a	0.11218126
163	0x3e346a43	0.1761866
164	0xbdd20f41	-0.10256816
165	0x3d74b21a	0.059740163
166	0xbcdd3ee0	-0.02700752
167	0x3d1679cc	0.03673725
168	0xbdc79337	-0.09744876
169	0xbd92a3d2	-0.071601525
170	0xbc6512d8	-0.0139815435
171	0x3e1d132a	0.15339342
172	0x3df3ef7f	0.11910915
173	0x3de49217	0.11160677
174	0x3e7316ee	0.23739216
175	0x3e2d8083	0.16943555
176	0x3df8583e	0.12126206
177	0x3bd0dc76	0.0063739372
178	0xbe13b2c0	-0.14423656
179	0x3e0c4e42	0.13701728
180	0xbdb55b38	-0.08855289
181	0xbd32e8f5	-0.043679196
182	0xbe3f9b7a	-0.18711653
183	0xbd916c79	-0.07100768
184	0xbe21a3c0	-0.15785122
185	0x3e1bb8ac	0.15207165
186	0xbe3f70a4	-0.18695313
187	0xbe28c46b	-0.16481178
188	0xbcdcdbc5	-0.026960263
189	0xbdf2f8e0	-0.118638754
190	0x3dacb374	0.084326655
191	0xbd11fb33	-0.035639953
192	0xbd432ed4	-0.04765208
193	0x3d3b5f72	0.04574532
194	0x3e39b125	0.18133982
195	0xbdc861c8	-0.09784275
196	0x3e3e80d0	0.18603826
197	0x3e78830a	0.24268737
198	0x3e9094b3	0.28238449
199	0xbda1dab9	-0.07903046
200	0x3d60b35e	0.054858558
201	0xbe13d610	-0.14437127
202	0x3e5238d1	0.20529486
203	0x3b228644	0.0024799267
204	0x3e5feedd	0.21868463
205	0x3cdc0cb7	0.026861532
206	0x3c76b133	0.015056896
207	0x3d80c23a	0.06287046
208	0x3e1d4518	0.15358388
209	0x3e6f74b2	0.2338436
210	0x3d5d08c4	0.053963438
211	0x3db75bb4	0.08953038
212	0xbdf1405b	-0.11779853
213	0x3e81ea63	0.25374135
214	0x3e9d37ff	0.30706784
215	0x3e1a41bb	0.15064137
216	0x3e010159	0.1259817
217	0xbe0e6212	-0.13904598
218	0xbce0d508	-0.027445331
219	0x3e84d05c	0.25940216
220	0xbe6fd140	-0.23419666
221	0x3dd20b0a	0.10256012
222	0xbe4c5c38	-0.19957054
223	0xbe14ffeb	-0.1455075
224	0x3e0165de	0.12636515
225	0xbdd34c04	-0.10317233
226	0x3c5fc725	0.01365832
227	0x3e81f264	0.25380242
228	0x3e9673d0	0.29385233
229	0x3ea160fa	0.315193
230	0xbbe76396	-0.007061432
231	0xbde65660	-0.112469435
232	0x3e950e5b	0.29112515
233	0x3d9ac68f	0.07557403
234	0x3d1e42e2	0.038638003
235	0x3d383796	0.044974886
236	0xbe0fb619	-0.14034308
237	0x3e1e90ef	0.15484975
238	0x3e33d0e1	0.1756015
239	0xbdc1130d	-0.09427462
240	0xbe4908d2	-0.19632271
241	0xbd584ac4	-0.052805677
242	0x3d71b11f	0.059006806
243	0xbbedb7f2	-0.007254594
244	0xbdc3fbbc	-0.09569499
245	0xbd2eddb7	-0.042691913
246	0xbe72b46d	-0.2370164
247	0xbe3a0d55	-0.18169148
248	0xbe23dadb	-0.16001455
249	0x3e0122fe	0.12611005

bias f4 [10]
0	0x3e423ffb	0.18969719
1	0xbd603c32	-0.054744907
2	0x3d913457	0.07090061
3	0x3de06f60	0.10958743
4	0x3e0e985b	0.13925306
5	0xbcdb6777	-0.026782734
6	0x3df830ab	0.12118658
7	0x3e08a818	0.13345373
8	0x3cf2cc99	0.029638575
9	0x3ceb3a05	0.02871419

weight f4 [20, 10, 5, 5]
0	0x3d55d141	0.052201513
1	0x3d300868	0.042976767
2	0xbd524ff7	-0.05134579
3	0x3d586fa5	0.052840848
4	0x3c836685	0.016040096
5	0xbd399763	-0.04531039
6	0x3c9cb4fb	0.019129267
7	0xbd9f7603	-0.07786181
8	0x3d21e103	0.03952123
9	0xbcf9a94a	-0.030476231
10	0x3bcd0099	0.0062561748
11	0x384bcf16	4.8591835e-05
12	0xbc4ce46f	-0.012505635
13	0x3d2589f0	0.04041475
14	0xbceb97ee	-0.02875897
15	0xbd4d4b24	-0.050120488
16	0xbda952d1	-0.08267749
17	0xbc9073cc	-0.017633341
18	0xbcb2a064	-0.021804996
19	0x3a585e01	0.0008253754
20	0xbd0eef20	-0.034896016
21	0x3c3cb303	0.011517289
22	0x3d820c75	0.06350032
23	0x3d1e1566	0.038594626
24	0xbc68c157	-0.014206252
25	0xbcd55817	-0.026042981
26	0xbd90744a	-0.070534304
27	0x3ccfc766	0.025363635
28	0x3999285f	0.00029212513
29	0x3d4f57bb	0.050620776
30	0x38d6fe00	0.000102516264
31	0xbd9e1d62	-0.07720448
32	0xbbc5fc65	-0.0060420507
33	0x3d32afd3	0.04362471
34	0x3cd659a2	0.026165787
35	0xbd3ea835	-0.046547133
36	0xbd842e2b	-0.06454118
37	0x3b82e3a3	0.0039944216
38	0x3c2ca4e3	0.010537359
39	0xbcb78cbe	-0.022405978
40	0xbc9ed923	-0.019390648
41	0xbcce8b70	-0.025212973
42	0x3d9f133f	0.07767343
43	0x3cd1b20e	0.025597598
44	0xbcac6073	-0.021042084
45	0xbce8478f	-0.028354434
46	0xbc996b65	-0.018727968
47	0x3dffe92e	0.12495647
48	0x3c5cca38	0.013475947
49	0x3d21e994	0.039529398
50	0xba8a0bde	-0.0010532101
51	0xbd239336	-0.039935313
52	0xbd8e0929	-0.06935341
53	0xbc5a2b36	-0.013315966
54	0x3d694aee	0.056956224
55	0xbda62891	-0.08113206
56	0xbd52d119	-0.051468942
57	0x3d7b0f33	0.061293792
58	0x3db1f9af	0.086902015
59	0x3d080bce	0.033214383
60	0xbd2d72d7	-0.042345848
61	0x39e02a34	0.00042756053
62	0x3d845804	0.064621
63	0x3c0b198f	0.00848998
64	0x3c089430	0.008336112
65	0xbd4b39cd	-0.04961567
66	0x3bb46ada	0.0055059018
67	0x3d5955a3	0.053060185
68	0xbd8fb649	-0.0701719
69	0xbd6299ed	-0.055322576
70	0x3c951270	0.018197268
71	0x3d11c59b	0.035588842
72	0x3ce99091	0.028511317
73	0xbd9640d5	-0.073365845
74	0xbcad6f03	-0.021171099
75	0xbc9bb0a4	-0.019005127
76	0xbd3a1e4c	-0.04543905
77	0xbd1e9361	-0.03871477
78	0x3c3ece2a	0.011645833
79	0xbb9426b8	-0.004521217
80	0xbd2aec2d	-0.04172914
81	0xbd776c66	-0.06040611
82	0xbd4dd300	-0.050250053
83	0x3d64e744	0.055884615
84	0xbc99734a	-0.018731732
85	0xbcd4c3a4	-0.025972195
86	0xbccbcad1	-0.024876984
87	0xbcd88041	-0.026428344
88	0xbd91b6b4	-0.07114926
89	0xbd26a8b5	-0.040688235
90	0x3d04371c	0.03227912
91	0x3ccf3a22	0.025296275
92	0xbcbc1fbb	-0.022964349
93	0xbd0875a9	-0.033315334
94	0x3d1a7e64	0.03771819
95	0x3d38441b	0.044986825
96	0x3d7bc621	0.061468247
97	0x3ca52b43	0.02016223
98	0x3d04f089	0.032455955
99	0xbc04023d	-0.008057174
100	0xbc80e480	-0.015733957
101	0xbdbc121b	-0.09183141
102	0xba61f9a2	-0.0008620267
103	0x3c8502af	0.016236631
104	0x3d9f5663	0.07780149
105	0xbc68a47e	-0.014199374
106	0xbe0b4e30	-0.13604045
107	0xbd9421d6	-0.07233016
108	0x3d8ffb7d	0.070303895
109	0x3cbb006d	0.022827351
110	0xbdd2d303	-0.102941535
111	0xbd47c0a2	-0.048767693
112	0x3d3a7a47	0.04552677
113	0x3d0b5711	0.03401858
114	0xbc012f46	-0.007884806
115	0xbd58bebb	-0.05291627
116	0xbd439ca7	-0.047756817
117	0x3dea928a	0.11453731
118	0x3cb38c21	0.021917405
119	0xbd81da79	-0.063404985
120	0xbd828f8a	-0.06375034
121	0xbd8134e3	-0.063089155
122	0x3d8ecac8	0.06972271
123	0xbd30714a	-0.04307679
124	0xbd7c69f0	-0.061624467
125	0x3d0bbe90	0.03411728
126	0x3c20e881	0.009821058
127	0x3cf131ae	0.029442634
128	0x3c1a0bd6	0.009402236
129	0xbc97f9f9	-0.018551813
130	0xbcbfe7ec	-0.023426019
131	0x3cfabc84	0.03060747
132	0x3cec1a42	0.028821114
133	0x3a45b8fc	0.00075425184
134	0x3d71bed7	0.05901989
135	0xbd1173a6	-0.03551068
136	0x3d69980f	0.05702978
137	0x3d8b5c94	0.06804767
138	0x3da04e8c	0.078274816
139	0x3bbc25eb	0.005741825
140	0xbd6c182b	-0.057640236
141	0x3dabb508	0.08384138
142	0x3d0dba2b	0.03460137
143	0xbd86c85a	-0.06581183
144	0xbd650706	-0.0559149
145	0xbd8b4b81	-0.068015106
146	0xba086941	-0.00052036723
147	0xbd5e5db0	-0.054288566
148	0x3c6f8831	0.014619873
149	0xbd24a0cc	-0.04019241
150	0xbc840fe5	-0.01612086
151	0x3c91c632	0.017794702
152	0x3cf7e29b	0.030259421
153	0xbce9b172	-0.028526995
154	0x3ccafcd5	0.024778763
155	0x3cb24f60	0.021766365
156	0xbd84ade8	-0.064784825
157	0x3d70db8c	0.058803126
158	0xbd02ce24	-0.031934872
159	0xbd0599d0	-0.03261739
160	0xbd73d642	-0.059530504
161	0x3d3810e9	0.044938
162	0x3cbf5fa9	0.023361044
163	0x3d421fe2	0.047393687
164	0xbba78023	-0.0051117106
165	0x3c9dcbdb	0.019262245
166	0xbc86496d	-0.016392434
167	0xbd0aaac3	-0.033854257
168	0x3ba33393	0.0049805134
169	0xbc1509e1	-0.009096594
170	0xbc5cb0cb	-0.013469885
171	0xbcb54476	-0.022127371
172	0x3c6f4469	0.014603713
173	0x3cd5e77a	0.026111353
174	0x3cd7267d	0.02626347
175	0xbd5e69b3	-0.05430002
176	0x3ce06de3	0.027396148
177	0xb9e06522	-0.0004279996
178	0x3cd42a91	0.025899203
179	0x3d31543a	0.043293215
180	0xbd755d0c	-0.05990319
181	0x3d95a2e2	0.07306458
182	0xbd8007b8	-0.06251472
183	0x3c7036fb	0.014661546
184	0xbb1be873	-0.0023789674
185	0x3c87801e	0.016540583
186	0xbccd7dd1	-0.025084408
187	0x3cab0f9c	0.020881467
188	0xbd0fdbc4	-0.035121694
189	0xbd26df75	-0.04074045
190	0x3c3a13b6	0.0113572385
191	0x3c98a11f	0.018631516
192	0x3d3545ec	0.044256136
193	0x3cacf24b	0.021111628
194	0x3da97df0	0.08275974
195	0x3cdbf7a8	0.02685149
196	0xbd5a88e6	-0.053353213
197	0xbd0e4745	-0.034735937
198	0x3d8ad6e5	0.06779269
199	0xbcb35305	-0.021890173
200	0x3be3b38a	0.006948893
201	0xbd4bca6e	-0.0497536
202	0x3d6db145	0.058030386
203	0x3c5bba31	0.013411091
204	0xbccb36c4	-0.024806388
205	0xbc102901	-0.008798839
206	0xbd67fb1a	-0.056635953
207	0xbcc7c1e1	-0.02438444
208	0x3baf2807	0.005345348
209	0xbd2fcb37	-0.04291841
210	0xbd261f7b	-0.040557366
211	0xbca9688e	-0.020679738
212	0x3d45849a	0.04822216
213	0x3d4041fd	0.04693793
214	0x3d158e75	0.03651281
215	0x3d2b4db8	0.041822165
216	0xbd3fe142	-0.046845682
217	0x3be39efd	0.006946443
218	0xbb9b062c	-0.0047309604
219	0xbd97a011	-0.07403577
220	0x3cb3b1ee	0.02193543
221	0xbccfbff8	-0.025360093
222	0x3a46498e	0.0007564061
223	0x3c376835	0.0111942785
224	0x3d3d4154	0.04620488
225	0xbc9eca5c	-0.019383602
226	0xbd4d91da	-0.050187923
227	0x3d6d2a6c	0.057901785
228	0x3caf22ba	0.021378864
229	0x3c62fba3	0.01385394
230	0x3c764ae8	0.0150325075
231	0xbd5823a6	-0.052768372
232	0x3cb22751	0.021747263
233	0xbd78e59a	-0.06076584
234	0xb7f24a7c	-2.8883333e-05
235	0x3c15bd2f	0.009139343
236	0x3c93d442	0.018045548
237	0xbcbd6800	-0.02312088
238	0xbd299ed9	-0.041411255
239	0x3c13468c	0.008988988
240	0xbd9ff697	-0.07810705
241	0xbd1c20d8	-0.03811726
242	0xbd0cc5f0	-0.034368455
243	0xbd40e650	-0.047094643
244	0xbd0c80f1	-0.034302656
245	0xbd88622b	-0.06659349
246	0xbbd4cfae	-0.006494484
247	0xbd368c5c	-0.04456745
248	0x3d1648ba	0.03669045
249	0xbc939311	-0.018014463
250	0xbd236b2f	-0.03989714
251	0x3ca4341a	0.020044375
252	0xbd474817	-0.048652735
253	0x3d1316d4	0.035910442
254	0x3cea7712	0.02862123
255	0xbd8dfc2a	-0.06932862

bias f4 [20]
0	0x3c9d043c	0.019167058
1	0xbc66ed97	-0.014094732
2	0x3d2b3bfa	0.041805245
3	0xbc17c1f9	-0.009262555
4	0xbc613169	-0.01374469
5	0xbcfbd7d1	-0.030742558
6	0xbd1f7455	-0.038929302
7	0xbc586c04	-0.013209347
8	0xbd3e181c	-0.04640971
9	0xbcae806d	-0.021301473
10	0x3c2149a2	0.009844216
11	0xbd2dfbe3	-0.042476546
12	0xbd516afc	-0.05112742
13	0x3d910cbd	0.07082508
14	0xbd094255	-0.033510525
15	0xbd777c89	-0.0604215
16	0xbc16bb72	-0.009199964
17	0xbd6b26dc	-0.057410106
18	0xbd822533	-0.063547514
19	0x3b86b1f4	0.004110569

weight f4 [50, 320]
0	0xbd7e9ad3	-0.06215937
1	0xbcbea63b	-0.023272624
2	0x3ad196f1	0.0015990419
3	0xbc95df26	-0.018294882
4	0x3d7ba4a7	0.06143632
5	0xbcfb1349	-0.030648844
6	0x3c48f26a	0.012264827
7	0x3cb05a09	0.021527307
8	0xbcdd0de8	-0.02698417
9	0x3cb1974a	0.021678586
10	0x3d803d7a	0.06261726
11	0x3d0c4aa9	0.03425089
12	0xbbdce4fe	-0.006741165
13	0xbc235968	-0.009970047
14	0x3d01cb03	0.031687748
15	0x3cb89cd7	0.022535725
16	0xbd0420ef	-0.03225797
17	0x3c9a53a5	0.018838713
18	0xbcada043	-0.021194583
19	0x3cd373f5	0.025812129
20	0x3d3219d1	0.04348165
21	0xbb0b56db	-0.0021261487
22	0x3d2b569f	0.041830655
23	0xbb73d7b1	-0.003720742
24	0x3d356d39	0.044293616
25	0xbd8202e0	-0.063482046
26	0x3d408ee0	0.047011256
27	0x3ca4fae2	0.020139161
28	0xbccf664d	-0.025317336
29	0xbd8191b1	-0.063266166
30	0x3c57dd32	0.013175296
31	0x3c802d34	0.015646555
32	0xbc5a88d0	-0.013338283
33	0xbb365b9b	-0.0027825597
34	0xbda0ba6c	-0.07848057
35	0xbda61b18	-0.081106365
36	0x3ca548ef	0.020176379
37	0x3d7273dd	0.059192527
38	0x3d83910f	0.06424152
39	0x3d3aff84	0.045653835
40	0x3d685bc8	0.056728154
41	0x3c2cb4da	0.010541165
42	0xbc7e931d	-0.015538004
43	0xbc9a51ad	-0.018837774
44	0x3a44b146	0.00075032224
45	0xbccb1d51	-0.024794253
46	0x3d4547ad	0.04816406
47	0xbd10745a	-0.03526721
48	0xbb24158f	-0.0025037264
49	0x3d92896c	0.071551174
50	0x3d1eb1ba	0.038743712
51	0x3c987253	0.018609202
52	0xbd0c2385	-0.03421356
53	0x3bdaad88	0.0066735186
54	0xbd77800e	-0.060424857
55	0x3d0da189	0.03457788
56	0xbd0e59f0	-0.03475374
57	0xbd15cf2a	-0.03657452
58	0xbd70db5e	-0.058802955
59	0xbcd6a86e	-0.02620336
60	0xbcf88741	-0.030337932
61	0xbc853ace	-0.016263392
62	0x3d04e325	0.032443184
63	0xbd6ec2fa	-0.058291413
64	0x3d01e615	0.031713564
65	0x3d1f3917	0.038872804
66	0x3d0fe8f0	0.035134256
67	0x3bc8532d	0.006113431
68	0xbcc32438	-0.023820981
69	0xbbece91a	-0.0072299363
70	0xbcf35797	-0.029704852
71	0x3b625a6d	0.0034538761
72	0xbcac02e8	-0.02099748
73	0xbd045ab8	-0.03231308
74	0x3c39184b	0.011297296
75	0x3cd7fc83	0.026365524
76	0xbca292b6	-0.019845348
77	0x3d01e27a	0.031710126
78	0x3cbd5aea	0.02311464
79	0xbc92a83b	-0.017902484
80	0xbd15acd6	-0.036541782
81	0x3d8ad3d1	0.06778682
82	0x3ca90578	0.02063249
83	0xbd69205a	-0.05691562
84	0xbcd1df4c	-0.025619172
85	0x3c293155	0.010326703
86	0xbd3a1aaf	-0.045435604
87	0x3bfa2ede	0.0076349815
88	0xbbc4fd00	-0.0060116053
89	0xbaf5fbb4	-0.001876703
90	0x3b0d98bb	0.0021605927
91	0xbd020d23	-0.03175081
92	0xbcaa066c	-0.020755015
93	0x3d58af11	0.05290133
94	0x3d80ea7b	0.062947236
95	0xbd06111b	-0.032731157
96	0x3cba00f7	0.022705538
97	0x3d1c7fe4	0.038207904
98	0x3ca15999	0.019696044
99	0x3b08cb3c	0.002087309
100	0x3d6d878b	0.057990592
101	0xbbbd82ef	-0.0057834308
102	0xbc9cf676	-0.01916049
103	0x3d59f316	0.05321034
104	0x396359b9	0.00021681831
105	0xbd12613d	-0.035737265
106	0x3d3a1482	0.045429714
107	0x3d51778c	0.0511394
108	0x3d13c4c3	0.03607632
109	0xbc3348b2	-0.010942625
110	0xbbb110fd	-0.0054036365
111	0x3d1b7b4e	0.03795939
112	0x3c3ae1c9	0.01140637
113	0xbd1b128e	-0.037859492
114	0x3d82c609	0.063854285
115	0xbacf6b11	-0.0015824755
116	0x3caf2f3a	0.021384824
117	0x3c2a3a4b	0.010389875
118	0x3ab2de87	0.001364664
119	0x3d23c805	0.039985675
120	0x3d160a48	0.0366309
121	0x3cd25a33	0.025677776
122	0xbd4be2ad	-0.04977672
123	0x3d218ca1	0.039440755
124	0xbd109a7b	-0.035303574
125	0xbd5e6dab	-0.054303806
126	0xbcb3d2c8	-0.021951094
127	0x3b9dc570	0.004814796
128	0xbd11dc8a	-0.035610713
129	0xbb620ad3	-0.0034491315
130	0x3ce8b245	0.028405318
131	0xbcd316bb	-0.025767675
132	0x3d1c1920	0.0381099
133	0x3d42850e	0.047490172
134	0x3d083948	0.033257753
135	0x3d00efc3	0.031478655
136	0x3d63cf42	0.05561758
137	0xbce33fba	-0.027740348
138	0xbc46da00	-0.012136936
139	0x3d4d49e4	0.050119296
140	0xbd1e8e23	-0.03870977
141	0xbc3e436d	-0.011612755
142	0xbd5dd623	-0.054159295
143	0xbcf1cdc7	-0.029517068
144	0xbd41b64c	-0.047292992
145	0xbcd9182b	-0.026500782
146	0xbcb11e65	-0.021620939
147	0x3d1640c4	0.03668286
148	0x3d24c97a	0.040231206
149	0xbb4a46c0	-0.0030864924
150	0x3b76f66d	0.0037683502
151	0xbd1b45b7	-0.037908282
152	0x3cd99dc9	0.026564496
153	0xbceea102	-0.029129509
154	0x3c1875d3	0.009305435
155	0x3d62d7b9	0.05538151
156	0x3d10f445	0.035389204
157	0x3d3eff60	0.046630263
158	0x3d877517	0.0661413
159	0x3d0a7b1f	0.033808824
160	0x3c5d9301	0.013523818
161	0x3b7f5662	0.00389614
162	0xbd07c897	-0.03315028
163	0x3ba9765e	0.005171581
164	0xbb0ffc1d	-0.002197034
165	0x3c288bb3	0.010287213
166	0x3d653499	0.055958364
167	0xbc5e38b5	-0.013563325
168	0xbd7a5def	-0.06112474
169	0x3d6a61e8	0.057222277
170	0xbc68fa7a	-0.0142198745
171	0x3d26c7a3	0.040717732
172	0x3d37440e	0.044742636
173	0x3ce46a96	0.027882855
174	0x3cbf4262	0.023347083
175	0xbca6313b	-0.020287147
176	0xbba40928	-0.0050059743
177	0xbdaffeed	-0.08593545
178	0xbd3c1004	-0.04591371
179	0xbd6ec3bd	-0.05829214
180	0x3ca447f5	0.020053843
181	0x3d0f5d2e	0.035000972
182	0x3c6961f8	0.014244549
183	0xbd31109f	-0.04322874
184	0x3c09959d	0.008397487
185	0xbd3fee14	-0.04685791
186	0x3c99c185	0.018769035
187	0x3c6ba855	0.014383395
188	0x3bdf6353	0.0068172603
189	0x3d0afbdd	0.0339316
190	0x3c224e83	0.009906414
191	0x3d7a8518	0.061162084
192	0xbce3fdbb	-0.027830949
193	0x3c8c9035	0.017158607
194	0xbca75c09	-0.020429628
195	0x3b1c5724	0.002385565
196	0x3bcd3cb0	0.006263338
197	0x3d432243	0.047640096
198	0x3caaa2cd	0.020829583
199	0x3c54ae97	0.012981079
200	0x3b399cb4	0.0028322162
201	0xbd63d0db	-0.055619102
202	0xbc851825	-0.016246865
203	0xbc375fcb	-0.011192272
204	0x3cbdc12f	0.023163406
205	0x3c3f30d3	0.011669355
206	0x3cd038c3	0.025417691
207	0xbcd9c8e2	-0.026585046
208	0xbd4d1bac	-0.050075218
209	0x3d0fb324	0.03508295
210	0x3d274eb4	0.04084654
211	0x3cf18db5	0.029486516
212	0x3cea33fc	0.028589241
213	0xbd7f3e90	-0.062315524
214	0x3beadd83	0.0071675195
215	0x3c463b15	0.012099047
216	0xbd7db118	-0.061936468
217	0x3d0008cb	0.031258386
218	0x3d00986f	0.031395372
219	0xbc03fa9e	-0.008055357
220	0xbd594862	-0.053047545
221	0x3d263287	0.04057553
222	0x3d15c258	0.036562294
223	0xbc961c2a	-0.018323977
224	0x3c917886	0.017757665
225	0x3b8036c6	0.0039127795
226	0xbd8f158b	-0.06986531
227	0xbd6c69c8	-0.05771807
228	0x3949f358	0.00019259506
229	0xbd136004	-0.03598024
230	0xbd42c4f2	-0.047551103
231	0xb935f166	-0.00017351433
232	0xbd056738	-0.03256914
233	0x3d36a824	0.044593945
234	0xbbd479ff	-0.0064842696
235	0xba1f6b77	-0.0006081382
236	0x3c437130	0.0119288415
237	0x3cad3598	0.02114372
238	0xbc694565	-0.014237736
239	0x3d7d8890	0.061897814
240	0x3d06a1ad	0.03286903
241	0x3cb390f4	0.021919705
242	0xbdb1e0ff	-0.08685493
243	0xbda4f6e7	-0.080549054
244	0xbd171d53	-0.0368932
245	0x3c608c2e	0.013705296
246	0x3a1b0ad5	0.0005914395
247	0x3d898adb	0.06715938
248	0x3ce6c59c	0.0281704
249	0xb9f7959c	-0.0004722298
250	0x3d2fa06e	0.042877607
251	0xbb066349	-0.0020505956
252	0x3c4f3986	0.012647992
253	0xbb6285d0	-0.0034564622
254	0x3c1f067a	0.009706134
255	0xbd32ab99	-0.04362068

bias f4 [50]
0	0x3d4713eb	0.04860298
1	0x3d15421b	0.036439996
2	0xbc1134b9	-0.008862668
3	0xbb8765ba	-0.004132
4	0x3c83fb27	0.01611097
5	0xbc3064d6	-0.010766229
6	0xb9faf5ca	-0.00047866843
7	0xbd21dad8	-0.039515346
8	0x3c98c64a	0.01864924
9	0x3c0ba9ca	0.008524368
10	0x3cc47b98	0.023984715
11	0x3d4c65ea	0.04990188
12	0xbcad81f6	-0.021180134
13	0xbbaf9efe	-0.0053595295
14	0xbc19835f	-0.0093697
15	0xbd250415	-0.040287096
16	0x3d6144fb	0.054997426
17	0x3ca6467c	0.020297281
18	0x3d7ad766	0.061240576
19	0xbd14ddcc	-0.036344334
20	0x3c4994cc	0.012303542
21	0x3c8c1a5f	0.017102418
22	0xbceb49e8	-0.028721765
23	0x3d18fac6	0.03734853
24	0x3d1e1a31	0.038599197
25	0xbb3742f5	-0.0027963493
26	0x3d8b76fc	0.06809804
27	0xbcbeba0a	-0.02328207
28	0xbd2d4409	-0.04230121
29	0xbd0501e0	-0.03247249
30	0xbd0563cd	-0.03256588
31	0x3d354481	0.044254784
32	0x3bb43fc0	0.0055007637
33	0xbd27eeb4	-0.04099913
34	0xbd3f2d0f	-0.04667383
35	0x3d90bdbe	0.070674405
36	0x3c2833d9	0.010266268
37	0xbd693548	-0.05693558
38	0x3d0415ab	0.032247227
39	0xbd031697	-0.032003965
40	0x3c48e594	0.012261767
41	0x3d906be9	0.07051832
42	0x3d10cb81	0.035350326
43	0xbd1663db	-0.036716323
44	0xbcc02c5f	-0.023458658
45	0x3c67ba50	0.014143541
46	0xbd37b39e	-0.04484903
47	0xbd4fc5f9	-0.05072591
48	0x3d56d291	0.052446906
49	0x3d079f57	0.033110943

weight f4 [10, 50]
0	0x3dce182b	0.100632034
1	0xbda10507	-0.07862287
2	0x3e12fd83	0.1435452
3	0x3d8f082b	0.0698398
4	0xbdb32e10	-0.0874902
5	0xbd3639bd	-0.044488657
6	0xbe2d7cc2	-0.16942123
7	0xbddfa7dd	-0.10920689
8	0xbdaba23b	-0.083805524
9	0xbdc44bdc	-0.095847815
10	0xbe415b08	-0.18882382
11	0xbdf0d2ae	-0.11758934
12	0xbd5c7c44	-0.053829446
13	0x3df00d6c	0.1172131
14	0x3e3df8e5	0.18551977
15	0x3df2b648	0.11851174
16	0x3d10617c	0.03524922
17	0x3e2af0b9	0.16693391
18	0x3de53ed7	0.111936264
19	0xbd146969	-0.03623334
20	0xbd028e38	-0.03187391
21	0xbe02418c	-0.12720317
22	0xbdc3180f	-0.09526073
23	0xbe46a7d5	-0.1939996
24	0xbd4b3a29	-0.049616013
25	0xbe41566a	-0.1888062
26	0xbe39631c	-0.18104213
27	0xbe688291	-0.22706057
28	0x3db9e34d	0.09076557
29	0x3e570f21	0.21001865
30	0xbe38889b	-0.18020861
31	0xbc687f45	-0.0141905
32	0x3e400c13	0.18754606
33	0x3e06df77	0.13171183
34	0xbdea56bc	-0.114423245
35	0x3e28f6f3	0.16500454
36	0x3e2d22d2	0.16907814
37	0x3d011ac2	0.03151966
38	0xbd9761ee	-0.073917255
39	0xbe06d762	-0.131681
40	0xbe017641	-0.12642767
41	0xbe51d194	-0.20490104
42	0x3dd5e6d3	0.10444417
43	0xbda6d4a3	-0.08146026
44	0x3941cc8b	0.00018482113
45	0x3e1ec2cf	0.15504001
46	0xbdae12ad	-0.08499656
47	0xbd0e8864	-0.03479804
48	0x3de88ea9	0.11355335
49	0x3b7cd85e	0.0038581113
50	0xbd65a4c9	-0.056065354
51	0x3e28ee71	0.16497208
52	0xbe0885cd	-0.13332291
53	0x3d9d30fd	0.076753594
54	0x3da94ffb	0.08267208
55	0x3e0a94d8	0.13533342
56	0xbe4dc71f	-0.2009549
57	0x3da03ebd	0.078244664
58	0x3d332564	0.04373683
59	0xbdfd30c5	-0.12362818
60	0x3e0f9ded	0.14025088
61	0x3e2d2697	0.16909252
62	0xbd8244d6	-0.06360786
63	0xbe104ad2	-0.14091042
64	0xbc30ab9e	-0.010783104
65	0xbe6ca9c9	-0.23111643
66	0x3dd569dc	0.10420582
67	0xbd43105a	-0.047623016
68	0xbe28fe83	-0.16503339
69	0x3c8ed358	0.01743476
70	0xbe02ee4f	-0.1278622
71	0x3d0f202c	0.03494279
72	0x3e117209	0.14203657
73	0x3e1ea637	0.15493093
74	0x3e1e5818	0.15463293
75	0xbe79061a	-0.24318734
76	0xbe83704f	-0.25671622
77	0x3e14c4d9	0.14528216
78	0x3e19544f	0.14973567
79	0x3d8c2c05	0.068443336
80	0x3e376fcc	0.17913741
81	0xbdbc2d5c	-0.09188339
82	0xbe4437fa	-0.19161978
83	0xbe25dbdf	-0.16197155
84	0x3e213191	0.15741564
85	0x3c566dd6	0.01308771
86	0xbe0cd4c2	-0.13753036
87	0xbd360e72	-0.04444737
88	0x3df5cdfe	0.120021805
89	0x3de5dbb1	0.112235434
90	0xbd8e6d77	-0.069544725
91	0x3dfbb9ee	0.12291323
92	0xbd93ba49	-0.072132654
93	0xbe5933fe	-0.2121124
94	0x3e056f3e	0.13030717
95	0xbdfa6cb8	-0.12227768
96	0xbe0d204c	-0.13781852
97	0x3debe2fb	0.115179025
98	0xbe4fcfdc	-0.20294136
99	0x3dc1e5af	0.09467637
100	0xbd5f4bfa	-0.054515816
101	0xbd0f28ed	-0.03495114
102	0xbda4f920	-0.08055329
103	0xbcc034cc	-0.023462676
104	0xbdaa37a1	-0.083113916
105	0x3e209ba8	0.15684378
106	0x3df0da50	0.1176039
107	0xbd155246	-0.036455415
108	0x3e29720b	0.1654741
109	0x3d291a19	0.041284654
110	0x3cca9297	0.024728103
111	0x3e48579b	0.19564669
112	0x3d30b2bc	0.043139204
113	0x3e2cb30f	0.1686518
114	0x3e2ca2d8	0.16858995
115	0x3dd186d9	0.10230798
116	0xbd06ab6f	-0.032878336
117	0x3d65af68	0.056075484
118	0xbe052d91	-0.13005663
119	0xbdc20fea	-0.094756916
120	0xbd21b13e	-0.039475672
121	0x3d492ab2	0.049112983
122	0xbdf6f1f1	-0.120578654
123	0xbe228196	-0.15869746
124	0xbdbdfe24	-0.09276989
125	0xbdaeba26	-0.08531599
126	0xbe26164d	-0.16219445
127	0x3dc5c71c	0.09657118
128	0xbe27ee5b	-0.16399519
129	0xbc920856	-0.01782624
130	0xbde0ff8b	-0.10986241
131	0xbdacfa76	-0.08446209
132	0x3c4a3656	0.012342056
133	0xbe04df45	-0.12975796
134	0x3de1de8f	0.11028778
135	0x3e2bd3b7	0.16779982
136	0xbdda2534	-0.10651627
137	0xbe10d744	-0.14144617
138	0x3e112961	0.14175941
139	0x3cef49df	0.02921003
140	0x3e113c7c	0.14183229
141	0x3e170b43	0.1475039
142	0xbd86f378	-0.06589407
143	0x3c95e858	0.018299267
144	0x3d679d5d	0.056546558
145	0x3e2bd8c1	0.16781904
146	0x3d1925cf	0.037389573
147	0x3dcf94d2	0.10135807
148	0xbdd66d6c	-0.10470089
149	0x3df72d39	0.120691724
150	0x3cca6812	0.024707828
151	0x3e42142e	0.1895301
152	0x3dee1b49	0.11626298
153	0xbde753d1	-0.112952836
154	0x3c2b1b4d	0.010443521
155	0xbe4ca745	-0.19985683
156	0x3dcbc450	0.09949553
157	0x3d31fa8e	0.04345184
158	0x3cd85240	0.026406407
159	0xbd109439	-0.035297606
160	0xbd663b46	-0.05620887
161	0x3e8ddff6	0.2770993
162	0xbdab28c9	-0.083573885
163	0xba707e0b	-0.00091740553
164	0x3d909a6c	0.07060704
165	0xbd4fc123	-0.0507213
166	0xbdf13b62	-0.117789045
167	0x3d4de65a	0.05026851
168	0xbe1b7199	-0.15180053
169	0x3e29e332	0.16590574
170	0x3e1b86d8	0.15188158
171	0x3e19c070	0.15014815
172	0x3d9d4438	0.07679027
173	0xbd1789b0	-0.036996543
174	0xbe01d887	-0.12680255
175	0xbe1a8089	-0.15088095
176	0x3dd8481b	0.10560628
177	0xbdd033aa	-0.10166104
178	0x3d910ca6	0.070824906
179	0xbdc7ffa3	-0.09765556
180	0xbe573c4f	-0.210191
181	0x3e1ffda5	0.15624101
182	0xbde6acc8	-0.11263424
183	0x3dea66b8	0.11445373
184	0x3d357371	0.044299547
185	0x3e0c6398	0.13709867
186	0x3e092718	0.1339382
187	0x3d276b97	0.04087409
188	0xbe52ebfd	-0.20597835
189	0xbca2caca	-0.019872088
190	0x3e12c3cf	0.14332508
191	0x3e15aef9	0.14617528
192	0xbe0eae51	-0.13933684
193	0x3d411e7d	0.047148217
194	0x3db2195a	0.08696242
195	0x3c9abb9a	0.018888284
196	0xbdcadf07	-0.0990582
197	0xbd0aad06	-0.033856414
198	0xbdc11f85	-0.0942984
199	0x3e198633	0.14992599
200	0x3d8578e7	0.06517201
201	0xbd766c25	-0.06016173
202	0xbcaaf958	-0.02087085
203	0x3d67ff93	0.05664022
204	0x3d134472	0.035953946
205	0x3e303c73	0.1721056
206	0x3e175d61	0.14781715
207	0xbdbcffdd	-0.092284895
208	0xbd9da61f	-0.07697701
209	0xbe01ce78	-0.12676418
210	0x3e53a8f5	0.2066992
211	0xbb879412	-0.0041375244
212	0x3e3c7235	0.18402942
213	0xbe49233d	-0.19642349
214	0xbd67a26f	-0.056551393
215	0x3dab16cd	0.08353958
216	0xbe161a4f	-0.14658473
217	0xbe1f415a	-0.15552273
218	0x3d7818e0	0.060570598
219	0xbdeaef1a	-0.11471386
220	0xbdf09cfd	-0.11748693
221	0xbe0c4e67	-0.13701783
222	0x3e552f47	0.20818816
223	0x3e075f8e	0.13220045
224	0x3da28692	0.079358235
225	0x3e3164b6	0.17323574
226	0x3da62b31	0.08113707
227	0xbd039784	-0.03212692
228	0x3d2d278d	0.042274047
229	0xbd36edab	-0.04466025
230	0x3d736412	0.059421606
231	0x3e21e0af	0.15808366
232	0xbe29d1ad	-0.16583891
233	0xbe4fa716	-0.20278582
234	0xbdd863c1	-0.105659015
235	0xbddb0cef	-0.10695826
236	0xbd6c8f9b	-0.05775414
237	0x3e6b2d5d	0.22966523
238	0x3df9be26	0.12194471
239	0xbd23082d	-0.03980272
240	0xbe2e9ebf	-0.17052744
241	0xbdb44580	-0.088023186
242	0x3d9b1c52	0.07573761
243	0x3d5364d9	0.051609848
244	0xbe16937e	-0.14704701
245	0x3d2919f3	0.041284513
246	0xbd87bf94	-0.066283375
247	0xbe15b761	-0.14620735
248	0x3e3cc242	0.18433478
249	0xbe079f14	-0.13244277
250	0x3db8c97c	0.09022805
251	0xbd5fc40f	-0.054630335
252	0xbd5444b3	-0.05182333
253	0xbe32161e	-0.1739125
254	0x3d2c5db5	0.042081553
255	0xbdb10685	-0.086438216

bias f4 [10]
0	0xbdcf5375	-0.1012334
1	0x3d91bcd9	0.07116098
2	0xbd2d95a3	-0.042379033
3	0xbe184d08	-0.14873135
4	0x3d0d2caa	0.034466423
5	0x3d85b140	0.065279484
6	0xbdb04321	-0.08606554
7	0xbda47cf6	-0.08031647
8	0x3c9f3282	0.019433264
9	0xbcf5ec57	-0.030019922
